results/run_1/nets/aux_classifier_x.pt (torch, 1483 bytes, 2 tensors)

weight f4 [10, 10]
0	0xc03b85d7	-2.930044
1	0xc031ef94	-2.7802477
2	0xc018eb9e	-2.389381
3	0x40836464	4.1060047
4	0xbde0c002	-0.109741226
5	0xc0593015	-3.3935597
6	0xc0335024	-2.8017664
7	0xc051200a	-3.2675805
8	0xbfeb795e	-1.8396413
9	0xc023395f	-2.5503767
10	0x406157d5	3.5209858
11	0xc069ed94	-3.6551256
12	0xc063e1fe	-3.5606685
13	0xc0611630	-3.5169792
14	0xbff305e4	-1.8986173
15	0xc04ad909	-3.1694968
16	0xc04c1cf3	-3.189267
17	0xc06ca455	-3.69753
18	0x4039afef	2.9013631
19	0xc0543107	-3.3154924
20	0xc035d13d	-2.840896
21	0xbfe1138e	-1.7584093
22	0xbfcceb0d	-1.6009232
23	0xc051405f	-3.269554
24	0xbfe80e9d	-1.812946
25	0xc0668a16	-3.602178
26	0xc00d151e	-2.204414
27	0x408b5489	4.354069
28	0xbf96b6bc	-1.1774516
29	0xc057b457	-3.370382
30	0xc01eb58a	-2.4798303
31	0xc051844c	-3.2736998
32	0xbf7eb7c9	-0.99499184
33	0xc0292b13	-2.643254
34	0x404ffaef	3.2496908
35	0xc0456e96	-3.0848746
36	0xc05f129a	-3.4855103
37	0xbea0c610	-0.3140111
38	0xc00fae0a	-2.2449975
39	0x40a3f07c	5.123106
40	0xc039e7ba	-2.9047685
41	0xc04d6666	-3.209375
42	0xc07df16b	-3.96786
43	0xc0647048	-3.569353
44	0xc04518ac	-3.0796309
45	0x407654c5	3.848924
46	0xbfea022b	-1.8281912
47	0xc0535441	-3.3020175
48	0xc011d60d	-2.2786896
49	0x3f3457a8	0.7044625
50	0xc01ae61a	-2.4202943
51	0x3f002b03	0.5006563
52	0x4092dfd0	4.589821
53	0xbfaf7672	-1.3708022
54	0x40119fe7	2.2753847
55	0xc06a31bf	-3.6592863
56	0xc0481e70	-3.1268578
57	0xc0571c75	-3.3611119
58	0xbf7cc29e	-0.9873446
59	0x3f6866d4	0.90781903
60	0xc03a78d1	-2.913624
61	0xc038cbfc	-2.8874502
62	0xc031fc78	-2.7810345
63	0xc02b6613	-2.678105
64	0xc03d9a13	-2.962529
65	0xc046b6dc	-3.1049109
66	0x4076f6bf	3.8588102
67	0xc0451d9d	-3.0799325
68	0xc01add32	-2.4197507
69	0xbea0826e	-0.3134951
70	0xbfe397ac	-1.7780662
71	0xc07ef778	-3.9838543
72	0x3f297c37	0.6620516
73	0xbf9dd9d6	-1.2332103
74	0xbf002879	-0.50061756
75	0x40309609	2.7591574
76	0xc05eb5a5	-3.4798367
77	0xbf30ade7	-0.69015354
78	0xbe2e08c7	-0.16995536
79	0xc072fb09	-3.796572
80	0xc0405f13	-3.0058029
81	0x4097837e	4.7348013
82	0xbfe10818	-1.7580595
83	0xc050dd45	-3.2635052
84	0x3ecfeaab	0.40608725
85	0xc05ea144	-3.4785929
86	0xc056e1d1	-3.3575327
87	0xc054b152	-3.3233228
88	0xbedf8179	-0.43653467
89	0xc001a4f3	-2.0256927
90	0xbff6cc9f	-1.9281195
91	0xbe3375b0	-0.17525363
92	0x3d50d93e	0.05098843
93	0xc0442a47	-3.0650804
94	0x3e3f4089	0.18676962
95	0x403f52a6	2.9894195
96	0xc051ff92	-3.2812238
97	0xc05ec6e8	-3.4808903
98	0xbfd62d9a	-1.6732666
99	0xc010cbee	-2.2624469

bias f4 [10]
0	0x3e594831	0.21218945
1	0x3e8f6cfe	0.28012842
2	0x3da3fea0	0.0800755
3	0xbe9d2132	-0.3068939
4	0x3d3073d7	0.043079223
5	0xbef01aa6	-0.4689533
6	0x3dc534f7	0.09629243
7	0xbe10a344	-0.14124781
8	0xbe1cac48	-0.15300095
9	0xbe5253f4	-0.20539838
