results/run_1/nets/aux_classifier_y.pt (torch, 1483 bytes, 2 tensors)

weight f4 [10, 10]
3.0246947 -2.8583045 -3.074938 -3.2406325 4.2092047 -3.408426 -3.6600902 -2.9411848
-3.2914531 -2.9499025 -3.8231316 4.109046 -3.130149 -0.08526954 3.118659 -3.2492435
-2.1306708 -3.3853312 -2.5456164 -3.241485 -3.6318228 -2.6027837 -1.6121618 -3.3717382
-2.8270044 -1.5332612 3.832892 -3.123024 -3.0406659 -2.9631712 4.7324104 -0.6222173
-0.3500614 -2.5590506 -4.0096593 -3.5691721 -0.37157166 -1.0948004 -1.5699043 -2.2837987
-3.9557815 -3.3171055 -3.7638524 3.4106495 -3.3091133 -4.4510145 -3.7100132 2.8582199
3.2245672 3.6542168 3.7251024 -1.059565 -2.6529567 -2.629521 -2.7848876 2.3082585
-0.41638768 -0.3674033 -3.1269684 -3.045291 -3.458175 -1.0276823 4.1807885 -3.6363227
-2.7579012 -3.2986875 -2.8112636 -1.0843192 -2.9739158 -2.9271708 -2.93647 -2.3482723
0.6251483 2.842438 -2.1490488 -3.6375484 -1.9741613 1.9501926 1.5650597 2.878574
-1.4551471 -2.8279903 -2.913186 -2.432067 -2.8302443 4.160833 -3.407629 -2.8059788
-2.7142923 -3.5903926 -3.4353058 -2.370649 -3.516227 2.671415 -2.1712508 -0.2593164
-2.8421369 0.24113446 2.414624 2.7698894
00000000: 9994 4140 76ee 36c0 c9cb 44c0 8666 4fc0
00000010: ceb1 8640 a723 5ac0 eb3e 6ac0 5f3c 3cc0
00000020: 2ba7 52c0 34cb 3cc0 30ae 74c0 4e7d 8340
00000030: 5c54 48c0 cca1 aebd 1c98 4740 9bf3 4fc0
00000040: e95c 08c0 44a9 58c0 61eb 22c0 7e74 4fc0
00000050: c96f 68c0 0294 26c0 515b cebf 8fca 57c0
00000060: a4ed 34c0 e741 c4bf 1a4e 7540 a0df 47c0
00000070: 459a 42c0 99a4 3dc0 e86f 9740 a249 1fbf
00000080: 3f3b b3be 7cc7 23c0 214f 80c0 516d 64c0
00000090: a43e bebe 6b22 8cbf a0f2 c8bf c229 12c0
000000a0: 862b 7dc0 754b 54c0 f5e2 70c0 1548 5a40
000000b0: 83c8 53c0 b66e 8ec0 db70 6dc0 13ed 3640
000000c0: 4f5f 4e40 b0de 6940 1468 6e40 d39f 87bf
000000d0: 0bca 29c0 124a 28c0 993b 32c0 82ba 1340
000000e0: c430 d5be 491c bcbe 4020 48c0 0ce6 42c0
000000f0: bd52 5dc0 188b 83bf 05c9 8540 83b9 68c0
00000100: 7481 30c0 b21d 53c0 beeb 33c0 f9ca 8abf
00000110: a354 3ec0 c456 3bc0 20ef 3bc0 184a 16c0
00000120: b809 203f 81ea 3540 048a 09c0 98cd 68c0
00000130: 51b1 fcbf e99f f93f e053 c83f 8e3a 3840
00000140: 4342 babf cbfd 34c0 a471 3ac0 fca6 1bc0
00000150: b922 35c0 8b25 8540 9816 5ac0 2895 33c0
00000160: f7b6 2dc0 fec8 65c0 0ddc 5bc0 b7b8 17c0
00000170: dd09 61c0 77f8 2a40 c6f5 0ac0 1fc5 84be
00000180: 92e5 35c0 f4eb 763e 3389 1a40 de45 3140

bias f4 [10]
-0.07426129 -0.004277169 0.31413764 -0.15775402 -0.119318224 -0.538211 0.37071744 -0.078694135
0.19822672 0.17596513
00000000: 4e16 98bd 7e27 8cbb a6d6 a03e 458a 21be
00000010: 1d5d f4bd 32c8 09bf adce bd3e 642a a1bd
00000020: f2fb 4a3e 3430 343e
